…
❌ vit.encoder.layer.8.attention.output.dense.bias
❌ vit.encoder.layer.8.intermediate.dense.weight
❌ vit.encoder.layer.8.intermediate.dense.bias
❌ vit.encoder.layer.8.output.dense.weight
❌ vit.encoder.layer.8.output.dense.bias
❌ vit.encoder.layer.8.layernorm_before.weight
❌ vit.encoder.layer.8.layernorm_before.bias
❌ vit.encoder.layer.8.layernorm_after.weight
❌ vit.encoder.layer.8.layernorm_after.bias
[2025/03/29 05:29:36] - MyViTForImageClassification(
  (vit): ViTModel(
    (embeddings): ViTEmbeddings(
      (patch_embeddings): CNNEmbedding(
        (conv_layers): Sequential(
          (0): Sequential(
            (0): Conv2d(3, 48, kernel_size=(3, 3), stride=(2, 2), padding=(1, 1))
          )
          (1): Sequential(
            (0): Conv2d(48, 96, kernel_size=(3, 3), stride=(2, 2), padding=(1, 1))
          )
          (2): Sequential(
            (0): Conv2d(96, 192, kernel_size=(3, 3), stride=(2, 2), padding=(1, 1))
          )
          (3): Sequential(
            (0): Conv2d(192, 384, kernel_size=(3, 3), stride=(2, 2), padding=(1, 1))
          )
          (conv_1x1): Conv2d(384, 192, kernel_size=(1, 1), stride=(1, 1))
          (flatten image): Rearrange('batch channels height width -> batch (height width) channels')
        )
        (projection): Identity()
      )
      (dropout): Dropout(p=0.0, inplace=False)
    )
    (encoder): ViTEncoder(
      (layer): ModuleList(
        (0-11): 12 x ViTLayer(
          (attention): ViTAttention(
            (attention): ViTSelfAttention(
              (query): Linear(in_features=192, out_features=192, bias=True)
              (key): Linear(in_features=192, out_features=192, bias=True)
              (value): Linear(in_features=192, out_features=192, bias=True)
              (dropout): Dropout(p=0.0, inplace=False)
            )
            (output): ViTSelfOutput(
              (dense): Linear(in_features=192, out_features=192, bias=True)
              (dropout): Dropout(p=0.0, inplace=False)
            )
          )
          (intermediate): ViTIntermediate(
            (dense): Linear(in_features=192, out_features=768, bias=True)
            (intermediate_act_fn): GELUActivation()
          )
          (output): ViTOutput(
            (dense): Linear(in_features=768, out_features=192, bias=True)
            (dropout): Dropout(p=0.0, inplace=False)
          )
          (layernorm_before): LayerNorm((192,), eps=1e-12, elementwise_affine=True)
          (layernorm_after): LayerNorm((192,), eps=1e-12, elementwise_affine=True)
        )
      )
    )
    (layernorm): LayerNorm((192,), eps=1e-12, elementwise_affine=True)
  )
  (classifier): Linear(in_features=192, out_features=10, bias=True)
)
[2025/03/29 05:29:36] - epoch 0 lr 1.000000e-02
❌ vit.encoder.layer.9.attention.attention.query.weight
❌ vit.encoder.layer.9.attention.attention.query.bias
❌ vit.encoder.layer.9.attention.attention.key.weight
❌ vit.encoder.layer.9.attention.attention.key.bias
❌ vit.encoder.layer.9.attention.attention.value.weight
❌ vit.encoder.layer.9.attention.attention.value.bias
…
